keypoint_classifier/keypoint_classifier.tflite (tflite, 6544 bytes, 6 tensors)

sequential/dense/BiasAdd/ReadVariableOp f4 [20]
-0.0140933 -0.1280706 0.117425844 0.26396462 0.004827747 -0.34665322 -0.23320203 -0.3095218
0.02770139 0.11942738 -0.14051123 -0.023842245 -0.1636802 -0.2697613 0.028082926 -0.16068426
0.15071075 0.001987424 -0.24873467 -0.10483801
00000000: 96e7 66bc f024 03be f67c f03d 5f26 873e
00000010: 1432 9e3b 887c b1be 83cc 6ebe a479 9ebe
00000020: 07ee e23c 5896 f43d 2de2 0fbe d050 c3bc
00000030: c89b 27be 271e 8abe 2a0e e63c 6a8a 24be
00000040: eb53 1a3e 713f 023b 4db4 7ebe 50b5 d6bd

sequential/dense_2/BiasAdd/ReadVariableOp f4 [4]
0.014522705 -0.5202195 0.3018976 0.2083579
00000000: a4f0 6d3c 1b2d 05bf 5292 9a3e c65b 553e

sequential/dense_1/BiasAdd/ReadVariableOp f4 [10]
-0.33087644 0.5672978 -0.42353603 0.34417328 0.19713597 0.31266034 -0.17058659 0.15295067
-0.25821224 0.5103346
00000000: a368 a9be 6e3a 113f b7d9 d8be 7b37 b03e
00000010: 03de 493e 0415 a03e 40ae 2ebe 1a9f 1c3e
00000020: 6534 84be 4aa5 023f

sequential/dense/MatMul f4 [20, 42]
0.06816736 0.1789144 0.41809234 0.2604095 0.5399934 0.31531575 0.25620583 0.074459866
0.15703659 0.03510117 1.3757154 0.21681301 0.3236721 0.017480223 0.06620191 0.01807621
-0.22889102 0.05623343 0.75991666 0.19492947 0.24946317 -0.009265815 -0.3862917 -0.05837857
0.31739473 -0.06977481 0.5081102 -0.053121854 -0.02315496 -0.017305158 0.081179336 -0.16900612
0.29135007 -0.25006232 0.28560764 0.07625814 0.024356497 -0.1583584 -0.17645107 -0.42714232
0.27536 -0.31880954 -0.109252155 0.13486308 0.34133455 -0.015547435 0.106647395 0.11570991
0.14290608 -0.12418818 -0.004086972 -0.19492814 -0.07123481 -0.19612738 0.057100385 0.20783369
-0.027473016 0.31228396 -0.076204434 0.24092981 -0.1057123 -0.021737427 0.11489068 0.15560295
-0.2421728 -0.06090408 0.08117449 0.109358095 -0.13331552 -0.0014872634 -0.18442242 0.2419625
0.0073968396 -0.09018335 -0.3690098 -0.011591173 -0.6985499 0.11911655 -0.48676962 0.11832401
-0.13891517 0.07372595 -0.075859025 -0.0011451417 0.07930681 0.22275949 0.48203495 0.20035715
0.41069502 0.018550254 0.42464697 -0.0409175 -0.042204104 -0.014651422 1.3991905 0.1254161
0.501692 -0.04167803 -0.17107293 -0.002896159 -0.4525616 -0.019682243 0.92478365 0.053698763
0.31993288 -0.093927585 -0.32397535 -0.0598098 -0.40884656 0.01734276 0.6639156 0.052105322
0.14334038 0.032749258 -0.10505088 0.053465784 -0.055206943 -0.085625894 0.24582826 -0.041380074
0.13024908 -0.05320465 -0.104231805 0.039768618 0.16134785 -0.07148649 -0.30560794 0.06483334
-0.39740175 -0.30230984 -0.16187733 -0.4617134 -0.23738675 -0.10848997 -0.13564572 -0.016234875
0.011100066 -0.21075478 -0.31631967 -0.13432832 -0.20887657 0.10013409 -0.40060392 0.10343656
0.09247117 0.008917797 -0.061722483 0.013035425 0.06867494 0.2699158 -0.16452438 0.41563493
0.5049998 -0.021653036 0.133814 0.25659817 -0.13197868 0.40366718 0.101577364 0.74967927
0.54440963 0.3601513 0.13394478 0.386189 0.38172752 0.39766136 0.033589356 0.63167745
0.01247707 -0.1408527 0.44776374 -0.12795347 0.23004314 0.1805067 0.20233732 0.3517685
-0.0035835525 0.100313924 -0.23179671 0.14460307 -0.22418052 0.26599336 -0.123558044 -0.0042276676
0.034100387 -0.034750298 -0.20379889 -0.024549589 0.12503715 0.36810005 0.09193728 0.5229629
-0.31360602 0.20147783 -0.23679039 0.06806132 -0.1392679 0.3923847 -0.044792984 0.47384456
-0.3767354 0.29746443 -0.07386879 0.2553437 -0.34835434 0.1655508 -0.45148507 0.42682716
-0.12585285 0.17394316 -0.10995683 0.2828173 0.44920686 0.36426836 0.20832905 0.4022355
0.18102989 -0.09683691 0.086778715 -0.15671276 0.1462998 -0.26843435 -0.07457756 -0.15543002
0.11602019 0.19543129 0.16839248 0.25133377 0.09458329 0.024305426 -0.22709407 0.046389733
0.042512547 -0.060685042 0.18849306 -0.09328588 -0.10526082 -0.021294257 -0.34381595 -0.24146432
-0.2899286 0.10680879 0.14173192 -0.22541642 -0.1648278 0.016447268 -0.16773286 -0.012982805
-0.49914947 -0.11912418 -0.36473095 -0.09645391 -0.18120968 -0.2211887 0.38739935 0.5391027
00000000: 549b 8b3d 5635 373e 3310 d63e 6554 853e
00000010: 023d 0a3f 1171 a13e 692d 833e 6a7e 983d
00000020: 33ce 203e 3fc6 0f3d 7117 b03f 3b04 5e3e
00000030: 59b8 a53e af32 8f3c de94 873d 8f14 943c
00000040: 6862 6abe 0655 663d e689 423f 979b 473e
00000050: 4673 7f3e a5cf 17bc 07c8 c5be 5e1e 6fbd
00000060: 9081 a23e 18e6 8ebd 8313 023f 4d96 59bd
00000070: 78af bdbc 8cc3 8dbc 5a41 a63d f10f 2dbe
00000080: d62b 953e 2b08 80be 2a3b 923e 3a2d 9c3d
00000090: 4787 c73c b428 22be 97af 34be 66b2 dabe
000000a0: fcfb 8c3e 013b a3be 98bf dfbd 8c19 0a3e
000000b0: 67c3 ae3e abba 7ebc f369 da3d 51f9 ec3d
000000c0: f955 123e 5f56 febd 02ec 85bb 3e9b 47be
000000d0: 8ee3 91bd 9ed5 48be 18e2 693d 5bd2 543e
000000e0: 170f e1bc afe3 9f3e 1211 9cbd 4eb6 763e
000000f0: b17f d8bd b012 b2bc ce4b eb3d 6156 1f3e
00000100: 25fc 77be 8e76 79bd d03e a63d 23f7 df3d
00000110: dd83 08be 47f0 c2ba 3bd9 3cbe 05c5 773e
00000120: 3061 f23b 0cb2 b8bd daee bcbe e7e8 3dbc
00000130: 2bd4 32bf 61f3 f33d de39 f9be dc53 f23d
00000140: c73f 0ebe a2fd 963d fa5b 9bbd 9418 96ba
00000150: 9c6b a23d 101b 643e 49cd f63e 6d2a 4d3e
00000160: 9e46 d23e b4f6 973c 546b d93e 1c99 27bd
00000170: 36de 2cbd 850c 70bc ad18 b33f 146d 003e
00000180: e36e 003f 95b6 2abd be2d 2fbe 7ccd 3dbb
00000190: 27b6 e7be a83c a1bc 9fbe 6c3f 3cf3 5b3d
000001a0: 3ece a33e 1b5d c0bd 19e0 a5be 1ffb 74bd
000001b0: 5654 d1be 6712 8e3c 5ff6 293f 646c 553d
000001c0: d2c7 123e 1624 063d ea24 d7bd f0fe 5a3d
000001d0: ad20 62bd a15c afbd 67ba 7b3e 277e 29bd
000001e0: 0460 053e 1eed 59bd 7c77 d5bd 6be4 223d
000001f0: 5f38 253e 8267 92bd a578 9cbe 58c7 843d
00000200: 3e78 cbbe 5bc8 9abe 2cc3 25be b365 ecbe
00000210: 8315 73be fd2f debd b6e6 0abe 00ff 84bc
00000220: 0ddd 353c 1ad0 57be a7f4 a1be 5d8d 09be
00000230: bde3 55be 1a13 cd3d f51b cdbe 8cd6 d33d
00000240: 8661 bd3d f41b 123c b7d0 7cbd 8992 553c
00000250: 72a5 8c3d 6732 8a3e 1479 28be 1ace d43e
00000260: ab47 013f b561 b1bc 8a06 093e d660 833e
00000270: 6b25 07be 77ad ce3e cb07 d03d fbea 3f3f
00000280: 6e5e 0b3f c065 b83e d228 093e 91ba c53e
00000290: ca71 c33e 459a cb3e fe94 093d 9db5 213f
000002a0: a06c 4c3c b13b 10be 4a41 e53e 3c06 03be
000002b0: 6e90 6b3e c0d6 383e 8431 4f3e 001b b43e
000002c0: 09da 6abb 6371 cd3d 1e5c 6dbe d412 143e
000002d0: 948f 65be 4830 883e 000c fdbd 3f88 8abb
000002e0: d9ac 0b3d 5456 0ebd a8b0 50be 381c c9bc
000002f0: bd09 003e 9c77 bc3e 9d49 bc3d e6e0 053f
00000300: f890 a0be 3450 4e3e 2e79 72be bc63 8b3d
00000310: 3f9c 0ebe a6e6 c83e d978 37bd c19b f23e
00000320: 76e3 c0be 424d 983e 8548 97bd 69bc 823e
00000330: 805b b2be 2686 293e 0d29 e7be 1789 da3e
00000340: 92df 00be 281e 323e 0c31 e1bd 6ecd 903e
00000350: 71fe e53e 6281 ba3e 3654 553e d0f1 cd3e
00000360: e65f 393e 6e52 c6bd 0ab9 b13d 4f79 20be
00000370: 9dcf 153e 3a70 89be 1fbc 98bd 0c29 1fbe
00000380: fe9b ed3d 241f 483e 146f 2c3e d2ae 803e
00000390: e2b4 c13d 2c1c c73c 598b 68be 2903 3e3d
000003a0: a321 2e3d e190 78bd 5304 413e ab0c bfbd
000003b0: fc92 d7bd 4b71 aebc a508 b0be 6c42 77be
000003c0: 8571 94be 91be da3d 2c22 113e 90d3 66be
000003d0: 9ec8 28be 6cbc 863c 2ac2 2bbe d5b5 54bc
000003e0: 8590 ffbe 61f7 f3bd 04be babe a189 c5bd
000003f0: 088f 39be 4a7f 62be 3559 c63e a202 0a3f

sequential/dense_1/MatMul f4 [10, 20]
-0.3732869 0.649741 -0.34794936 0.2813778 0.7179552 0.5598855 0.7502303 0.13208644
0.5657456 -0.15052341 0.10314984 0.35745332 -0.386337 -0.09338384 0.39868337 -0.109413944
-0.15875421 0.32736087 0.047799256 0.69803065 -0.7640741 0.16858786 -0.39652 -0.14745662
0.3617603 -0.3812396 0.24204518 0.025327675 -0.05308762 0.11899692 0.2789586 -0.34454206
0.17122687 0.35430384 0.33282176 -0.7428385 -0.06788188 0.055675503 0.313791 0.27442464
0.13082562 0.35906163 -0.30281907 0.03188683 0.40295568 0.02703326 -0.18947896 -0.26971003
0.007882381 -0.0013194836 0.70087314 0.1136797 -0.3235774 -0.35157055 0.27908587 0.12171486
0.28302905 -0.008021072 -0.31766954 -0.085712135 0.25118214 0.12559497 0.24785815 -0.995861
-0.56051207 -0.4884378 -0.4342243 0.42097872 -0.3084036 -0.0031322388 -0.38933477 -0.29985675
0.41735017 0.59198046 0.7752739 -0.15914595 -0.13640068 0.4862656 0.60672194 -0.1477016
-0.41190612 -0.81133014 -0.12048252 -0.2861787 0.25128335 -0.073291145 -0.23460361 -0.007279716
-0.35837883 -0.2430833 0.003979877 -0.040479206 -0.054844856 -0.5379389 0.24518931 0.022312569
-0.03049673 0.1985284 0.09301984 0.14103463 -0.47608745 -0.39192468 0.2623974 0.25215912
-0.41931143 0.090242505 0.046091273 0.2084511 -0.5550004 0.2399242 0.1040573 -0.20378856
-0.01012558 -0.10738415 -0.28163233 0.21916537 0.54109037 -0.06480601 0.06928273 -0.1468662
0.23562558 -0.025100406 0.68830127 -0.14248163 0.117186144 0.073457204 -0.29090708 0.6383597
-0.098187424 -0.35418943 -0.44874325 0.02005923 0.35245878 -0.07461383 -0.11785338 0.5870029
-0.43538865 -0.13387457 0.024769623 -0.15502211 0.5187376 -0.50309485 0.49898195 0.55250156
-0.11360832 0.34834594 0.013136887 -0.53362304 -0.25668272 0.388892 -0.27892822 0.7000144
0.3005516 -0.41268876 -0.42625993 0.4938897 0.16814779 -0.28534442 -0.54249984 -0.2694318
-0.07750758 0.14456084 -0.11042935 -0.33541068 0.045908287 0.4594631 0.53489786 -0.06390794
0.035993595 -0.61692023 -0.38529968 0.52261895 0.17421624 0.40173608 0.09607721 0.6895568
-0.40576246 0.031039655 0.300442 0.3002821 -0.8934342 -0.60166574 -1.2439401 -0.7708251
-0.5840564 -0.0042725457 -0.41276664 -0.542072 -0.6340936 0.33399954 0.45713404 -0.34309176
0.25724256 0.07447499 -1.0472091 -0.7179292 0.50246954 -1.0800885 0.17963997 -0.65788007
00000000: 761f bfbe 6d55 263f 6b26 b2be c010 903e
00000010: e9cb 373f a854 0f3f 180f 403f ab41 073e
00000020: b4d4 103f cf22 1abe 3940 d33d 1f04 b73e
00000030: f7cd c5be 0740 bfbd 3a20 cc3e 6b14 e0bd
00000040: 7790 22be d89b a73e 27c9 433d 23b2 323f
00000050: 5c9a 43bf 4ca2 2c3e ab04 cbbe defe 16be
00000060: a538 b93e d631 c3be b1da 773e fc7b cf3c
00000070: 6772 59bd a8b4 f33d a9d3 8e3e d167 b0be
00000080: 1956 2f3e 5067 b53e 9d67 aa3e aa2a 3ebf
00000090: a805 8bbd ff0b 643d 37a9 a03e 6381 8c3e
000000a0: 27f7 053e edd6 b73e 1a0b 9bbe c49b 023d
000000b0: 3550 ce3e db74 dd3c c606 42be 6f17 8abe
000000c0: 1a25 013c 86f2 acba 6c6c 333f e7d0 e83d
000000d0: f0ab a5be 0e01 b4be 58e4 8e3e a445 f93d
000000e0: 2fe9 903e d06a 03bc 95a5 a2be d889 afbd
000000f0: f29a 803e f89b 003e 87ce 7d3e bff0 7ebf
00000100: b87d 0fbf 8514 fabe a652 debe 868a d73e
00000110: 14e7 9dbe 3f46 4dbb e356 c7be d386 99be
00000120: ecae d53e 088c 173f 5a78 463f 28f7 22be
00000130: 9fac 0bbe cef7 f83e 2152 1b3f 173f 17be
00000140: 5ce5 d2be 55b3 4fbf 8abf f6bd 0486 92be
00000150: 36a8 803e ab19 96bd ee3b 70be af8a eebb
00000160: 6e7d b7be d4ea 78be a169 823b 86cd 25bd
00000170: 00a5 60bd 5db6 09bf e812 7b3e d9c8 b63c
00000180: 47d4 f9bc 074b 4b3e 3081 be3d 626b 103e
00000190: bcc1 f3be 5aaa c8be f458 863e 001b 813e
000001a0: fdaf d6be 10d1 b83d 34ca 3c3d 3574 553e
000001b0: 8214 0ebf b1ae 753e fe1b d53d f3ad 50be
000001c0: c3e5 25bc 39ec dbbd 1d32 90be e36c 603e
000001d0: e684 0a3f 03b9 84bd 1be4 8d3d 1864 16be
000001e0: d547 713e 5e9f cdbc 8334 303f b4e6 11be
000001f0: 4aff ef3d bb70 963d c6f1 94be 8b6b 233f
00000200: 7d16 c9bd 5158 b5be adc1 e5be 4153 a43c
00000210: 7a75 b43e 23cf 98bd 1d5d f1bd d245 163f
00000220: 43eb debe 6a16 09be aae9 ca3c 1ebe 1ebe
00000230: fdcb 043f d3ca 00bf 907a ff3e be70 0d3f
00000240: 7bab e8bd 665a b23e 193c 573c 859b 08bf
00000250: eb6b 83be da1c c73e aecf 8ebe 2534 333f
00000260: e6e1 993e f14b d3be be3e dabe 1cdf fc3e
00000270: ef2e 2c3e aa18 92be 45e1 0abf f7f2 89be
00000280: 4bbc 9ebd c207 143e c828 e2bd f3ba abbe
00000290: 540a 3c3d bf3e eb3e 11ef 083f 2be2 82bd
000002a0: 056e 133d 7cee 1dbf 0046 c5be 5bca 053f
000002b0: be65 323e 5ab0 cd3e 21c4 c43d cb86 303f
000002c0: 19c0 cfbe e046 fe3c 89d3 993e 93be 993e
000002d0: 1bb8 64bf c406 1abf 6e39 9fbf cb54 45bf
000002e0: b884 15bf b600 8cbb 2656 d3be 3bc5 0abf
000002f0: f553 22bf fd01 ab3e 790d ea3e b9a9 afbe
00000300: 4cb5 833e 5886 983d f30a 86bf 35ca 37bf
00000310: d8a1 003f 5740 8abf 8af3 373e d46a 28bf

sequential/dense_2/MatMul f4 [4, 10]
-0.81899166 0.10682215 -0.34251288 0.9206484 0.45790613 -0.38320124 0.10822572 -0.23392951
-0.45198777 -0.7701958 0.683047 -0.46853286 0.5855145 0.44470108 0.059258338 -0.64992464
0.817405 -0.80446166 0.8335036 -0.8763954 0.5074856 0.61030513 -0.64227027 0.26718065
-0.33081973 -0.21430679 -0.57833153 -0.7829435 -0.63065976 0.7600644 -0.6354617 -0.3753043
0.08349563 -0.7117069 -0.84064937 0.10076594 0.09017525 0.83307755 -0.06641235 -0.47208613
00000000: 70a9 51bf 92c5 da3d d95d afbe 9daf 6b3f
00000010: ac72 ea3e f432 c4be 72a5 dd3d 388b 6fbe
00000020: f16a e7be 8d2b 45bf 2bdc 2e3f 8ae3 efbe
00000030: 47e4 153f dcaf e33e dfb8 723d 7661 26bf
00000040: 7441 513f 33f1 4dbf 7e60 553f 735b 60bf
00000050: 94ea 013f f53c 1c3f d36b 24bf e7cb 883e
00000060: 3461 a9be 3d73 5bbe 890d 14bf fc6e 48bf
00000070: eb72 21bf 9593 423f 9ead 22bf e327 c0be
00000080: c2ff aa3d 6c32 36bf cc34 57bf 605e ce3d
00000090: cdad b83d 9244 553f 3303 88bd 46b5 f1be
